model.pth (torch, 147355 bytes, 20 tensors)

layers.0.weight f4 [128, 3]
0	0xbf1871f0	-0.59548855
1	0x3e077b7f	0.13230704
2	0x3e109857	0.14120613
3	0xbd37f3f8	-0.0449104
4	0x3d2ed14e	0.042680077
5	0x3f2f4529	0.68464905
6	0xbe47fb81	-0.19529535
7	0xbef205ed	-0.47270146
8	0xbbb0fc09	-0.0054011387
9	0xbe4df20a	-0.20111862
10	0xbdac17df	-0.084029905
11	0xbebbcc86	-0.36679476
12	0xbec984e8	-0.39359212
13	0x3f07d738	0.5306277
14	0x3ea556e8	0.32292867
15	0xbee19372	-0.44057804
16	0xbf3678b3	-0.7127792
17	0x3d802f58	0.0625903
18	0xbd3b70f2	-0.04576201
19	0x3e6ed4b6	0.2332333
20	0xbe7fc16c	-0.24976128
21	0x3ef84240	0.48488045
22	0x3ee44a2d	0.44587842
23	0x3e8093cd	0.25112763
24	0xbeb99f5f	-0.36254403
25	0xbf282ac7	-0.65690273
26	0xbd85e23d	-0.06537292
27	0x3da64774	0.08119097
28	0xbe37e386	-0.17957887
29	0xbf19276d	-0.59825784
30	0x3dbea0e6	0.09308033
31	0xbeb46d50	-0.3523965
32	0x3e89b981	0.2689934
33	0xbed4bc7f	-0.4155006
34	0x3ee4f9be	0.44721788
35	0x3f218866	0.6309875
36	0xbca1e9e3	-0.019764846
37	0x3e43103d	0.19049163
38	0x3e50784c	0.2035839
39	0x3d5dc652	0.05414421
40	0x3d341d24	0.043973103
41	0x3f05cc83	0.52265185
42	0xbe04cca4	-0.12968689
43	0x3e27ea10	0.16397882
44	0xbed064c0	-0.40701866
45	0x3ee5f39c	0.44912422
46	0xbe659845	-0.22421367
47	0xbe19e728	-0.15029585
48	0xbefd99f3	-0.49531516
49	0xbe9e6934	-0.3093964
50	0xbe5191b9	-0.20465745
51	0xbf01687a	-0.50550044
52	0x3e05d207	0.130684
53	0x3ec3e0a8	0.38257337
54	0x3ec118b5	0.37714162
55	0xbe3025dd	-0.17201944
56	0xbf0c91e2	-0.549101
57	0xbe745f7f	-0.23864554
58	0x3ec5899d	0.38581553
59	0x3e807f9f	0.25097367
60	0x3daa4116	0.083131954
61	0x3eea122c	0.4571699
62	0xbe20ec63	-0.15715174
63	0x3f1e02d5	0.6172307
64	0x3eb03a1b	0.3441933
65	0x3d305620	0.043050885
66	0xbed98b88	-0.42489266
67	0xbf30628c	-0.6890037
68	0x3e0c2bfd	0.13688655
69	0xbed8b306	-0.42324084
70	0xbe9e75b3	-0.30949172
71	0x3f14af71	0.580802
72	0xbf010a00	-0.50405884
73	0x3de26933	0.110552214
74	0xbeae07b5	-0.33990255
75	0xbf0bfe5f	-0.54685014
76	0xbe025b18	-0.12730062
77	0xbee4c4c5	-0.44681373
78	0xbf303a03	-0.6883852
79	0x3e3ec921	0.18631412
80	0x3d5c4358	0.05377516
81	0xbdf4cc12	-0.11952986
82	0xbe02334e	-0.12714884
83	0x3f19fc06	0.6015018
84	0x3ed53d39	0.41648272
85	0xbeed7cee	-0.46384376
86	0x3ef9b512	0.48770958
87	0x3e2dd67d	0.16976352
88	0x3ede9975	0.43476453
89	0x3f0347ad	0.51281244
90	0x3dd9861a	0.10621281
91	0xbefbc414	-0.49173033
92	0x3f01f8a0	0.50769997
93	0xbf11eb8a	-0.5700003
94	0xbda677ca	-0.08128317
95	0x3a9bf333	0.001189804
96	0x3f06d4a6	0.52668226
97	0xbe841bc6	-0.2580244
98	0x3ed3d85b	0.41376004
99	0x3f0f06e5	0.55869895
100	0xbd3f98f7	-0.046776738
101	0xbe456d9d	-0.19280095
102	0xbd981bc9	-0.074271746
103	0x3ef413af	0.47671267
104	0x3ee70ce8	0.45127034
105	0xbedb93b8	-0.42886138
106	0x3edb07d0	0.42779398
107	0x3cca786a	0.024715621
108	0x3da205a8	0.07911235
109	0xbd895861	-0.0670631
110	0xbed615a6	-0.4181339
111	0x3ece0727	0.40239832
112	0xbf0603c8	-0.5234952
113	0x3ef2ffb0	0.474607
114	0x3e11c096	0.14233622
115	0x3e05e884	0.13076979
116	0xbf1ba1e1	-0.6079388
117	0xbe658889	-0.22415365
118	0x3eb67ece	0.3564362
119	0x3e3298c1	0.17441083
120	0xbf0feb30	-0.5621824
121	0xbe80773f	-0.25090978
122	0xbe9e0d0d	-0.30869332
123	0x3f0ccfca	0.5500456
124	0x3ecd4865	0.40094295
125	0x3e235474	0.15950185
126	0xbdc512ab	-0.09622701
127	0xbe70ad65	-0.23503645
128	0xbee21ba2	-0.44161707
129	0x3dfab0df	0.12240767
130	0xbe8d5e89	-0.27611187
131	0x3f2ee401	0.68316656
132	0x3c6d072b	0.014467041
133	0xbec1a5dc	-0.37821853
134	0xbef82593	-0.48466167
135	0x3dafca61	0.085835226
136	0xbf0a0738	-0.53917265
137	0x3d9411f3	0.07229986
138	0xbf09993f	-0.5374946
139	0xbedb12c2	-0.4278775
140	0xbf1870d5	-0.5954717
141	0x3e50beaf	0.2038524
142	0xbe2d2bd7	-0.16911255
143	0xbf03af88	-0.51439714
144	0x3ee60fde	0.4493398
145	0xbdfd86b6	-0.1237921
146	0x3f03c7fa	0.51477015
147	0x3f4601f3	0.77346724
148	0xbd1c76d5	-0.038199265
149	0xbcb280f0	-0.021789998
150	0xbeac026b	-0.33595595
151	0xbeb59d35	-0.35471502
152	0xbf0ee7e2	-0.55822575
153	0xbda039f6	-0.07823555
154	0xbf48312d	-0.78200036
155	0x3da918a3	0.08256652
156	0xbe8186d3	-0.25298175
157	0xbf087c25	-0.5331443
158	0x3e2b4f93	0.16729574
159	0x3e8f1397	0.27944633
160	0x3eba8198	0.36426997
161	0xbf1bd493	-0.6087124
162	0x3e4a8e41	0.19780828
163	0x3f231003	0.63696307
164	0x3d77a9b2	0.06046457
165	0xbe072007	-0.13195811
166	0xbf0ce0d9	-0.5503059
167	0x3e966bbd	0.29379073
168	0x3ecc1b87	0.39864752
169	0xbca6547f	-0.020303963
170	0x3f146640	0.5796852
171	0x3f04b33d	0.51835996
172	0x3e766a8a	0.24064079
173	0x3edb4759	0.4282787
174	0x3dbb9718	0.09159678
175	0xbe245f0e	-0.16051885
176	0xbe271ad6	-0.16318831
177	0x3e792bae	0.24333069
178	0xbf1460c4	-0.5796015
179	0x3ea133f4	0.3148495
180	0x3e0a873f	0.13528155
181	0xbeba6847	-0.36407682
182	0xbe58c313	-0.21168165
183	0x3e281a7d	0.16416354
184	0xbf31e9cb	-0.69497365
185	0x3eb8899f	0.36042497
186	0xbf0150de	-0.5051402
187	0x3b354772	0.0027660993
188	0x3f163406	0.5867313
189	0xbd43ebb7	-0.047832217
190	0x3ed88cea	0.4229501
191	0xbe7e9fe8	-0.24865687
192	0xbea6a91a	-0.3255089
193	0x3ee39fa2	0.44457728
194	0x3e8fe634	0.2810532
195	0xbe1f1590	-0.15535569
196	0x3ef6cdf5	0.48204008
197	0xbe8d9e4d	-0.27659836
198	0x3cdd5127	0.027016236
199	0xbe165bbd	-0.14683433
200	0x3ee2d598	0.44303584
201	0x3e056f18	0.1303066
202	0x3ec87682	0.39152914
203	0x3eb41246	0.35170192
204	0xbe0384cc	-0.12843627
205	0x3e66fc72	0.22557238
206	0xbea7dc89	-0.32785442
207	0xbf01d1c5	-0.5071071
208	0xbe8c00d4	-0.27344382
209	0x3e83e05e	0.25757116
210	0x3ea28aaf	0.31746432
211	0x3e2104e6	0.15724525
212	0xbee8917e	-0.45423502
213	0x3ec20d16	0.3790061
214	0xbeeb9d3b	-0.46018395
215	0x3e558d63	0.20854716
216	0x3f2cc9cc	0.6749542
217	0x3de241ea	0.11047728
218	0x3e866cb2	0.26254803
219	0x3dae6650	0.08515608
220	0x3e11495a	0.14188138
221	0xbefaa300	-0.48952484
222	0x3e80cd85	0.251568
223	0x3e06ebe1	0.13175918
224	0xbedb4371	-0.4282489
225	0xbe976369	-0.2956803
226	0xbec19f45	-0.37816826
227	0xbf207c9d	-0.62690145
228	0x3ef166bb	0.4714869
229	0xbd6717f2	-0.05641932
230	0xbe95f71e	-0.29290098
231	0xbf3c34d2	-0.735181
232	0xbe4d5895	-0.20053323
233	0xbe4dff83	-0.20117001
234	0x3e1777e3	0.14791827
235	0x3eabc005	0.33544937
236	0x3e40680e	0.18789694
237	0x3d43c658	0.047796577
238	0xbf022aff	-0.50846857
239	0xbe9df757	-0.30852768
240	0x3f3a8f6e	0.72875106
241	0xbe1e3d2b	-0.15453021
242	0x3e3f2b53	0.1866887
243	0x3f384047	0.7197308
244	0x3d364052	0.044494934
245	0x3df4474a	0.1192766
246	0xbefc2eab	-0.49254355
247	0xbed56ef7	-0.41686222
248	0x3e449c83	0.1920033
249	0xbe917d6a	-0.28415996
250	0xbedfc010	-0.4370122
251	0xbf044486	-0.5166706
252	0xbd7cba2b	-0.06170098
253	0x3f0c1e2b	0.5473353
254	0xbea6dc30	-0.32589865
255	0xbe870143	-0.2636815

layers.0.bias f4 [128]
0	0x3e9893e8	0.29800344
1	0x3eb9a78d	0.36260644
2	0xbe999f31	-0.30004266
3	0x3f21b3ef	0.6316518
4	0x3ee2a364	0.44265282
5	0x3f072c07	0.52801555
6	0xbf0d290d	-0.55140764
7	0x3e1a1923	0.15048651
8	0x3e7252dc	0.23664421
9	0x3e9eca93	0.31013927
10	0xbdde4fd4	-0.1085507
11	0x3d5d9579	0.054097626
12	0xbe4a5da3	-0.19762282
13	0x3dc262df	0.094915144
14	0xbd4247b2	-0.047431655
15	0x3d99347e	0.07480715
16	0xbf0ffb12	-0.5624248
17	0x3d67366d	0.05644839
18	0x3da2c2b2	0.079472914
19	0xbf089ae8	-0.5336137
20	0x3e7c71c8	0.24652779
21	0xbef9b301	-0.48769382
22	0x3e91f54b	0.28507456
23	0xbebc1402	-0.36734015
24	0x3e6e39d3	0.23264246
25	0xbe7c44a7	-0.24635564
26	0x3f167a72	0.58780587
27	0xbebe8bfe	-0.3721618
28	0x3ed950b5	0.42444387
29	0x3e50d792	0.20394734
30	0x3e60a67b	0.21938507
31	0xbe072482	-0.1319752
32	0xbee18791	-0.4404874
33	0xbdae6a28	-0.085163414
34	0x3eec5c99	0.46164396
35	0xbcc15919	-0.023602055
36	0x3e8713b6	0.26382226
37	0x3e94e7d6	0.29083127
38	0xbecc44ed	-0.39896336
39	0x3f156b8e	0.5836724
40	0xbe642ee9	-0.2228352
41	0x3efeb607	0.4974825
42	0x3eca32f5	0.39492002
43	0xbf18a74a	-0.5963026
44	0x3ea7c1b4	0.3276497
45	0x3eba4852	0.363833
46	0xbf05dce9	-0.5229021
47	0xbe8680cd	-0.26270142
48	0xbd639860	-0.055565238
49	0xbc848608	-0.016177192
50	0x3e6800f7	0.22656618
51	0xbe03cc15	-0.1287082
52	0xbebcde9f	-0.36888596
53	0xbd9fac64	-0.07796553
54	0xbc3e557f	-0.011617064
55	0xbe5ad324	-0.21369606
56	0xbf115bb6	-0.56780565
57	0xbed43689	-0.41447857
58	0x3e4d9651	0.20076872
59	0xbf1959ad	-0.5990246
60	0xbef267e3	-0.47344884
61	0x3ec2b4de	0.38028616
62	0xbec681d5	-0.3877093
63	0xbea0baf8	-0.31392646
64	0xbf0db48a	-0.55353606
65	0x3f0ccd42	0.550007
66	0xbc5f81cd	-0.013641787
67	0xbc8782c2	-0.016541842
68	0x3efbec8d	0.4920391
69	0x3e8da2fa	0.27663404
70	0xbd155ebd	-0.036467303
71	0xbede6531	-0.43436578
72	0x3cb63ca6	0.022245716
73	0x3b9ef4ec	0.0048509743
74	0xbef09e86	-0.46995944
75	0xbf28c28e	-0.65921867
76	0x3e0115a8	0.12605917
77	0x3f03936b	0.51396817
78	0xbeb4739a	-0.35244447
79	0xbe949835	-0.29022375
80	0x3ef9bc6e	0.48776573
81	0x3e149bb3	0.1451252
82	0xbebe2063	-0.37134084
83	0xbf014248	-0.5049176
84	0x3f148f98	0.58031607
85	0x3eb6d789	0.35711315
86	0x3df49f80	0.11944485
87	0xbd262f52	-0.040572472
88	0xbe95b254	-0.29237616
89	0x3c6cd89b	0.01445594
90	0xbe5367a9	-0.20645012
91	0x3c9e3a40	0.019314885
92	0xbe507e93	-0.20360784
93	0x3e03dac2	0.12876418
94	0xbeedf5bf	-0.46476552
95	0xbe2681bd	-0.16260429
96	0xbeae354a	-0.3402503
97	0xbf0d29c6	-0.55141866
98	0xbe4a1200	-0.19733429
99	0xbecfefb9	-0.4061258
100	0x3e98c5d9	0.29838446
101	0xbe87cd26	-0.26523703
102	0xbec7b184	-0.3900262
103	0xbe8b19fc	-0.27168262
104	0x3e5f0f1d	0.21783109
105	0xbe2f4f23	-0.17120032
106	0xbf2507f2	-0.6446525
107	0x3f09de9a	0.5385529
108	0x3ec2d521	0.3805323
109	0xbe1fbc6c	-0.15599221
110	0xbf2ce793	-0.67540854
111	0x3f2bcf64	0.6711333
112	0x3ef30650	0.47465754
113	0x3e8ecd0b	0.2789081
114	0x3ef49cba	0.47775823
115	0xbbba417f	-0.0056840773
116	0x3cd93602	0.02651501
117	0x3f256765	0.6461089
118	0x3d80dafb	0.06291767
119	0x3e257e21	0.16161396
120	0xbe98bf30	-0.29833364
121	0xbe92d56e	-0.2867846
122	0xbdafe15c	-0.08587906
123	0xbe502716	-0.2032741
124	0x3d9526ad	0.072827674
125	0xbccb8ca3	-0.024847334
126	0xbcc26586	-0.02373005
127	0x3dedc167	0.11609154

layers.1.weight f4 [128]
0	0x3fac7018	1.3471708
1	0x3fa05d54	1.2528481
2	0x3f4bbbf8	0.7958369
3	0x3f8eec56	1.1165874
4	0x3f530501	0.8242951
5	0x3f24594a	0.64198744
6	0x3f38bfd7	0.72167724
7	0x3f37e90a	0.71839964
8	0x3f4bc789	0.7960134
9	0x3f97f93b	1.1872934
10	0x3f4df196	0.80446756
11	0x3f7b0c40	0.98065567
12	0x3f5275a5	0.8221076
13	0x3fa22843	1.2668537
14	0x3f65cf9e	0.89769924
15	0x3f6f5737	0.93492454
16	0x3f7b377b	0.9813153
17	0x3fab35bb	1.3375772
18	0x3f8f3146	1.1186912
19	0x3f3348ef	0.7003316
20	0x3f41ac42	0.7565347
21	0x3f599802	0.8499757
22	0x3f598cec	0.84980655
23	0x3f37d79e	0.7181338
24	0x3f86b5c5	1.0524222
25	0x3fa5aadc	1.2942767
26	0x3f3b7809	0.73230034
27	0x3fa9ae66	1.3256347
28	0x3f58cbb5	0.8468583
29	0x3f35ea0d	0.7106026
30	0x3f49f455	0.78888446
31	0x3f9c9f44	1.2236104
32	0x3f303428	0.68829584
33	0x3f9cd6fe	1.225311
34	0x3f6115d7	0.8792395
35	0x3f2fef1a	0.68724215
36	0x3f934458	1.1505232
37	0x3f3f03b2	0.74615014
38	0x3f467226	0.77517927
39	0x3f47d654	0.78061414
40	0x3f6022f6	0.87553346
41	0x3f646120	0.892107
42	0x3f61f373	0.882621
43	0x3f69b9e2	0.9129926
44	0x3f8238d5	1.0173594
45	0x3f5afbb4	0.8554032
46	0x3f71dcac	0.94477344
47	0x3f7ec4a3	0.99518794
48	0x3f5a74a2	0.8533422
49	0x3f96b39c	1.1773562
50	0x3f6e667f	0.93125147
51	0x3f1d610b	0.614762
52	0x3f47bc97	0.7802214
53	0x3f596a54	0.8492787
54	0x3efda2aa	0.49538165
55	0x3f54b174	0.8308327
56	0x3f99de44	1.2020955
57	0x3f75c5e6	0.96005094
58	0x3f558c95	0.83417636
59	0x3f492b35	0.78581554
60	0x3f5f9c2e	0.87347686
61	0x3f414b62	0.7550565
62	0x3f8891c2	1.0669482
63	0x3f575c92	0.84125626
64	0x3f4affaf	0.7929639
65	0x3f4c8477	0.79889625
66	0x3f971019	1.1801788
67	0x3f6031c5	0.8757594
68	0x3f37027b	0.7148816
69	0x3f49a63f	0.78769296
70	0x3f49dc4a	0.7885176
71	0x3f40b914	0.75282407
72	0x3f8db112	1.1069663
73	0x3f6857a8	0.9075875
74	0x3f40a5ed	0.7525318
75	0x3f8bc98b	1.0920881
76	0x3f7ef63f	0.9959449
77	0x3f7d4c17	0.9894423
78	0x3f338de0	0.7013836
79	0x3f6ac8ba	0.91712534
80	0x3f4ecf9c	0.80785537
81	0x3f9aee07	1.210389
82	0x3f406461	0.75153166
83	0x3f5a0ceb	0.8517596
84	0x3f430f62	0.7619535
85	0x3f6f6f9e	0.9352969
86	0x3f5bf7ab	0.85924786
87	0x3f3826a7	0.7193398
88	0x3f61ef2a	0.8825556
89	0x3f709f13	0.9399273
90	0x3f9b9d42	1.2157366
91	0x3f5b3076	0.8562082
92	0x3f9e7ce8	1.2381868
93	0x3f357793	0.7088558
94	0x3f4931f5	0.78591853
95	0x3f33d96e	0.70253646
96	0x3f8569fc	1.0422969
97	0x3f137d7e	0.5761336
98	0x3f96d3b7	1.178336
99	0x3f8b7249	1.0894252
100	0x3f300c15	0.68768436
101	0x3f5fb75d	0.87389165
102	0x3f6fcda2	0.93673146
103	0x3f5a947e	0.8538283
104	0x3f63d577	0.88997597
105	0x3f695311	0.91142374
106	0x3faac877	1.3342427
107	0x3f7d318c	0.9890373
108	0x3f3c032e	0.7344235
109	0x3f5b2582	0.8560411
110	0x3f9c21f9	1.2197868
111	0x3f97e3c4	1.1866384
112	0x3f6f51ce	0.934842
113	0x3f629766	0.88512266
114	0x3f543c03	0.8290407
115	0x3f5eb28e	0.869912
116	0x3f401a65	0.75040275
117	0x3f860e55	1.0473124
118	0x3f795dfa	0.9740902
119	0x3f83d1db	1.0298418
120	0x3f6b7fca	0.91991866
121	0x3f82e78c	1.0226912
122	0x3f76cbee	0.9640492
123	0x3f648127	0.8925957
124	0x3f9a0a99	1.2034484
125	0x3f7d3bb5	0.9891923
126	0x3f5a13a7	0.8518624
127	0x3f544edb	0.82932824

layers.1.bias f4 [128]
0	0x3bdd650d	0.006756431
1	0xbe6bbb66	-0.23020706
2	0xbeaebde3	-0.34129247
3	0x3cf64f9b	0.030067256
4	0xbe85b04c	-0.26111066
5	0xbf148657	-0.58017486
6	0xbd908d9e	-0.07058261
7	0xbe2ab867	-0.16671906
8	0xbf335722	-0.7005483
9	0xbe3182e8	-0.17335093
10	0xbb125560	-0.002232872
11	0xbb7f7b6e	-0.0038983482
12	0xbe9b1646	-0.3029043
13	0xbe9e51bd	-0.30921736
14	0x3d6696eb	0.05629627
15	0xbd86af6d	-0.065764286
16	0xbe3d2558	-0.18471277
17	0xbdb6c012	-0.08923353
18	0xbde90fb3	-0.113799475
19	0xbe37d274	-0.17951375
20	0x3e0b1742	0.13583091
21	0xbd9fdc47	-0.078056864
22	0xbe7063b1	-0.23475529
23	0xbeb3298e	-0.3499264
24	0xbe3e2b68	-0.18571246
25	0xbe164307	-0.14674006
26	0xbe2f69a3	-0.17130141
27	0x3d621671	0.055197183
28	0xbaf56afa	-0.0018723898
29	0xbe5498e1	-0.20761444
30	0x3cf626ff	0.030047892
31	0xbd17704b	-0.036972325
32	0xbebaf4f8	-0.3651502
33	0xbd9cfae1	-0.07665039
34	0xbe598400	-0.2124176
35	0xbdd26cba	-0.10274644
36	0xbe818476	-0.25296372
37	0xbe76b297	-0.24091564
38	0xbc2de65f	-0.010614007
39	0xbde6a209	-0.112613745
40	0xbe248dd4	-0.16069728
41	0xbd788090	-0.06066948
42	0xbe6cb0c7	-0.2311431
43	0xbd8ca465	-0.06867293
44	0xbca0f7f6	-0.019649487
45	0xbefdc55e	-0.49564642
46	0xbe116434	-0.1419838
47	0xbea2fb4e	-0.31832355
48	0xbe8ec8e3	-0.2788764
49	0xbcdaf5e8	-0.026728585
50	0xbdc01ed5	-0.09380881
51	0xbf256de3	-0.646208
52	0xbe3cdced	-0.18443651
53	0xbe98ea92	-0.29866463
54	0xbec489c4	-0.38386357
55	0xbe6a6c0e	-0.22892782
56	0xbe141dcb	-0.1446449
57	0x3ddcda1f	0.10783791
58	0x3c97e5d2	0.018542204
59	0xbeaac05a	-0.33349878
60	0xbdee1b8f	-0.1162635
61	0xbeb35d34	-0.35032046
62	0xbe5e4df7	-0.21709429
63	0x3e276e00	0.16350555
64	0xbc7da53d	-0.01548129
65	0x3d10e640	0.035375834
66	0x3c8e2350	0.017350823
67	0x3cef8265	0.029236982
68	0xbeaca81d	-0.3372201
69	0xbe9e5eb0	-0.30931616
70	0xbed386ac	-0.41313684
71	0xbe779cbd	-0.24180885
72	0x3d4ebc15	0.050472338
73	0x3e09606f	0.13415693
74	0xbedf5416	-0.4361884
75	0xbdaae76e	-0.08344923
76	0xbe9fdbb0	-0.31222296
77	0xbe137f89	-0.1440412
78	0xbebe6469	-0.37185982
79	0xbeb8dfc5	-0.36108223
80	0xbe735516	-0.23762926
81	0x3e163757	0.14669548
82	0xbeb2ec8f	-0.34946105
83	0xbe58c3c7	-0.21168433
84	0x3e2a33eb	0.16621368
85	0xbe236391	-0.1595595
86	0xbe10f083	-0.14154248
87	0xbeee3ba6	-0.46529883
88	0xbcc0d1e5	-0.023537586
89	0x3de92e3d	0.113857724
90	0x3d3693d1	0.044574562
91	0x3dbc78a8	0.09202701
92	0xbda94b5c	-0.08266327
93	0xbe4b9a1c	-0.19883007
94	0xbec7331f	-0.3890619
95	0xbd45816b	-0.048219126
96	0xbdd9b6da	-0.10630579
97	0xbe001807	-0.12509166
98	0xbe667c50	-0.22508359
99	0xbd74c6fc	-0.05976008
100	0xbebbd479	-0.3668554
101	0xbdd4b8ab	-0.10386785
102	0x3b17ed1b	0.0023182097
103	0x3dc21787	0.09477144
104	0xbeec6f47	-0.46178648
105	0xbdd5a124	-0.10431126
106	0xbea1dd52	-0.31614166
107	0xbd8b7273	-0.06808939
108	0x3e0402f7	0.12891756
109	0xbe962bf1	-0.293304
110	0xbdf4c367	-0.119513325
111	0xbe81e336	-0.2536866
112	0xbe9c1ec2	-0.30492216
113	0x3e1a77b7	0.1508473
114	0xbe7214ee	-0.23640797
115	0x3e316d32	0.17326811
116	0x3d17ed55	0.03709157
117	0xbce0f7a6	-0.027461838
118	0xbe883f8f	-0.2661099
119	0xbcd44cbb	-0.025915494
120	0xbbe85161	-0.0070897792
121	0xbea155ae	-0.3151068
122	0xbddae524	-0.10688236
123	0xbee497ae	-0.44646972
124	0xbdb5139c	-0.08841631
125	0xbe1b3236	-0.15155873
126	0xbe545524	-0.20735604
127	0xbd49768f	-0.049185332

layers.1.running_mean f4 [128]
0	0x3ea91c58	0.33029437
1	0x3f308caf	0.68964666
2	0xbe388e2f	-0.18022989
3	0x3ef0cafd	0.47029868
4	0x3eec95a6	0.46207923
5	0x3f3e15e1	0.74252135
6	0xbf3ca6c2	-0.7369195
7	0x3e262aac	0.16227216
8	0x3ebfb985	0.37446228
9	0x3d7e9dbb	0.062162142
10	0x3deeba8f	0.11656677
11	0x3e7d51c0	0.24738216
12	0xbe162b24	-0.14664894
13	0x3eaf7a61	0.34273055
14	0xbe95c615	-0.29252687
15	0x3d7ff0c4	0.06248547
16	0xbf15f507	-0.5857701
17	0x3e56ef6f	0.20989774
18	0xbe15d6b5	-0.14632685
19	0xbf02e11e	-0.5112475
20	0x3d4cb083	0.049973022
21	0xbf0d7462	-0.5525571
22	0x3f07f02c	0.5310085
23	0xbb042e72	-0.0020169285
24	0x3d07e955	0.033181507
25	0xbedf7ed4	-0.4365145
26	0x3f0fc7cf	0.5616426
27	0xbd2c61a7	-0.042085316
28	0x3f49c387	0.78813976
29	0x3eb0e0b7	0.34546444
30	0x3f1980ab	0.59961957
31	0xbde84c8c	-0.11342725
32	0xbe287c64	-0.16453701
33	0xbe295f28	-0.16540205
34	0x3f0f93de	0.56085
35	0xbe0151c6	-0.1262885
36	0x3d97c626	0.07410841
37	0x3f2a272a	0.6646601
38	0xbf3b96c6	-0.73276937
39	0x3f13902c	0.57641864
40	0xbea10b4b	-0.31453928
41	0x3ef3d258	0.47621417
42	0x3e7280ce	0.23681948
43	0xbe3d5eb4	-0.18493158
44	0x3e3db742	0.18526939
45	0x3f0a89e0	0.5411663
46	0xbf3552b9	-0.7082935
47	0xbef193f2	-0.47183186
48	0x3e710649	0.23537554
49	0xbc5136c7	-0.012769408
50	0x3d25bef0	0.040465295
51	0x3dee1f80	0.11627102
52	0xbe1667ac	-0.14687985
53	0xbef19a0f	-0.4718785
54	0xbe1702a5	-0.14747103
55	0x3d97554a	0.073893145
56	0xbe8c08ef	-0.27350566
57	0xbe86c5c9	-0.26322773
58	0x3e2578f2	0.16159418
59	0xbe953b8a	-0.29146987
60	0xbef77232	-0.48329312
61	0x3f3d7def	0.74020284
62	0xbdcfa536	-0.10138933
63	0xbf0c229a	-0.547403
64	0xbf079c41	-0.529728
65	0x3e92be84	0.28660977
66	0x3e786527	0.24257337
67	0x3d68de4d	0.056852628
68	0x3e8a0bda	0.26962167
69	0x3ef21c75	0.47287336
70	0xbe99c1a6	-0.30030555
71	0xbe55b1ff	-0.20868681
72	0x3e013bab	0.12620418
73	0xbe8c08d3	-0.27350482
74	0xbf36e379	-0.71440846
75	0xbf5f5e51	-0.8725329
76	0xbae13393	-0.0017181508
77	0x3eee3757	0.46526596
78	0xbeb178d3	-0.34662494
79	0xbe9f1822	-0.310731
80	0x3f1f9477	0.62335914
81	0x3e49ca3e	0.19706056
82	0xbe2f2c73	-0.171068
83	0xbf25ee40	-0.64816666
84	0x3e8d3053	0.2757593
85	0x3e35e2f0	0.17762351
86	0xbe4847bc	-0.19558614
87	0xbee844c2	-0.45364958
88	0xbf1a6163	-0.6030485
89	0x3e533630	0.2062614
90	0x3d8d5bda	0.06902285
91	0xbe34a762	-0.17641976
92	0x3db8e51d	0.09028075
93	0xbc112553	-0.008858996
94	0xbe51acf1	-0.20476128
95	0xbe0d2c75	-0.1378649
96	0xbeeab68c	-0.45842397
97	0xbf28d346	-0.6594738
98	0x3deffbf8	0.11717981
99	0xbe2c7703	-0.16842274
100	0x3e956a94	0.29182875
101	0xbe84813d	-0.2587985
102	0xbf2fe811	-0.6871348
103	0xbf067582	-0.5252305
104	0x3eab4daa	0.3345769
105	0xbea5b71c	-0.32366264
106	0xbf2aa242	-0.66653836
107	0x3eb457bd	0.3522319
108	0x3ddce43b	0.10785719
109	0xbd00376d	-0.03130286
110	0xbf0038d9	-0.5008674
111	0x3f66c232	0.9014007
112	0x3e695ae1	0.22788574
113	0x3c8fa07f	0.017532585
114	0x3f0cbb27	0.5497307
115	0xbeccae88	-0.39976907
116	0xbe222167	-0.15833054
117	0x3f7d6c9b	0.98993844
118	0x3d85ea1d	0.06538794
119	0x3ceacdb8	0.028662547
120	0xbee2574a	-0.4420722
121	0xbef2b206	-0.47401446
122	0xbe94a69e	-0.2903337
123	0xbde0e387	-0.109808974
124	0x3c974de2	0.018469755
125	0xbe61621a	-0.22010079
126	0xbe0971be	-0.13422295
127	0x3d2d314c	0.04228334

layers.1.running_var f4 [128]
0	0x3ae711d3	0.0017629213
1	0x3c13b54a	0.009015391
2	0x3b8eae71	0.004354291
3	0x3b325bc6	0.0027215346
4	0x3be05448	0.0068459846
5	0x3c2e26d0	0.010629371
6	0x3b287881	0.0025706592
7	0x3ba94d15	0.0051666596
8	0x3c0b11bc	0.008488115
9	0x3be5a10a	0.0070077227
10	0x3b8cb59b	0.00429411
11	0x3c2be08c	0.010490548
12	0x3aa77df4	0.0012778626
13	0x3bac1090	0.005250998
14	0x3b880dcc	0.0041520353
15	0x3af14b97	0.0018409368
16	0x3b4bf1ec	0.0031119538
17	0x3b7447c8	0.003727423
18	0x3bd0d735	0.006373311
19	0x3b6fdb79	0.0036599322
20	0x3b9eab58	0.004842203
21	0x3b6425c8	0.0034812558
22	0x3c2c690b	0.010523091
23	0x3c24336e	0.010022027
24	0x3b65eeda	0.0035084994
25	0x3b9f743c	0.004866151
26	0x3b0ed09c	0.0021791821
27	0x3c0051f9	0.007832044
28	0x3c2b3443	0.010449472
29	0x3bf7cc4b	0.0075621954
30	0x3c340afc	0.010988947
31	0x3a9e1f31	0.0012063739
32	0x3bc67c36	0.0060572876
33	0x3ae45ac4	0.001742207
34	0x3be79d14	0.0070682857
35	0x3b820ef9	0.00396907
36	0x3b5c244d	0.0033590973
37	0x3c3acf24	0.011401925
38	0x3c03bcab	0.008040587
39	0x3b368e2b	0.0027855735
40	0x3b7137f9	0.0036807044
41	0x3b89d27b	0.0042059994
42	0x3b8d16ca	0.004305695
43	0x3c3e386e	0.011610134
44	0x3bcd2fa7	0.006261784
45	0x3bbea7c7	0.0058183405
46	0x3c22f49b	0.009946014
47	0x3baf4d90	0.0053498223
48	0x3bd31cdc	0.0064426493
49	0x3b0230d9	0.0019865541
50	0x3bfdd95f	0.00774686
51	0x3c459650	0.012059763
52	0x3bda11bd	0.0066549466
53	0x3c386838	0.011255316
54	0x3bfb1710	0.0076626614
55	0x3c092ad2	0.008372026
56	0x3be9c88c	0.0071345028
57	0x3ba3bdc1	0.0049969857
58	0x3a67976c	0.00088345143
59	0x3c1a8425	0.00943092
60	0x3b43c5a4	0.0029872442
61	0x3c5665c0	0.0130857825
62	0x3bf7538a	0.0075478004
63	0x3ba91a97	0.0051606405
64	0x3b9fe961	0.004880116
65	0x3bda676e	0.006665162
66	0x3b966b02	0.004590393
67	0x3b96ceb1	0.0046022763
68	0x3b666d59	0.003516039
69	0x3b828316	0.003982912
70	0x3babb2cc	0.00523982
71	0x3bbdbd9e	0.0057904264
72	0x3b3f6622	0.0029205163
73	0x3bb33205	0.0054686093
74	0x3b9172ca	0.0044387328
75	0x3c191f8c	0.0093459
76	0x3b1b9f6f	0.0023746153
77	0x3b4d4847	0.0031323598
78	0x3b2687c0	0.0025410503
79	0x3bbfa28a	0.0058482336
80	0x3b445357	0.00299569
81	0x3b02879c	0.0019917255
82	0x3bad4256	0.005287449
83	0x3c008bb6	0.00784581
84	0x3c0eadf6	0.008708468
85	0x3bf7f874	0.0075674597
86	0x3c089c64	0.008338068
87	0x3c4a7c74	0.0123587735
88	0x3bff364b	0.0077884546
89	0x3bd51234	0.006502414
90	0x3bbdff75	0.005798275
91	0x3b2da9bc	0.0026498875
92	0x3c0bef20	0.008540899
93	0x3ab9761e	0.0014149582
94	0x3bf69085	0.0075245523
95	0x3b1214f0	0.0022290312
96	0x3ad3781a	0.0016133816
97	0x3b4e6fb0	0.0031499676
98	0x3c3ebcd2	0.011641698
99	0x3be37b60	0.0069421977
100	0x3b0d30fa	0.0021544085
101	0x3ae4af36	0.0017447236
102	0x3bfd2c40	0.0077262223
103	0x3bfd20f7	0.007724877
104	0x3b241012	0.0025033993
105	0x3b9ebaa7	0.004844028
106	0x3b00f9a4	0.0019680047
107	0x3b8f3a3f	0.004370957
108	0x3bd56b5e	0.0065130433
109	0x3bbb0279	0.005707082
110	0x3b22ba63	0.0024830333
111	0x3b8b3f28	0.004249472
112	0x3bad01b3	0.0052797436
113	0x3b9a44a7	0.004707891
114	0x3b20bb13	0.0024525567
115	0x3c306fc5	0.010768835
116	0x3b5cd0b3	0.003369373
117	0x3c1e5a35	0.009665062
118	0x3bba1e63	0.005679892
119	0x3aeb8345	0.0017968199
120	0x3bb4cea8	0.0055177994
121	0x3b40e8a9	0.0029435551
122	0x3c3f14b4	0.011662651
123	0x3be52b8d	0.006993717
124	0x3ad94f0f	0.0016579347
125	0x3b5933b1	0.0033142383
126	0x3ab48783	0.0013773296
127	0x3b978b0d	0.0046247304

layers.3.weight f4 [128, 128]
0	0x3dbf3222	0.09335734
1	0x3dbd01c4	0.092288524
2	0xbbaf8c38	-0.0053572915
3	0xbc4c0647	-0.0124526685
4	0x3e2e4e29	0.17022003
5	0xbc9014b9	-0.017588006
6	0xbd18362c	-0.037161037
7	0xbe1da85d	-0.15396257
8	0x3dd2092b	0.10255655
9	0x3c63e3ae	0.013909264
10	0xbdaa5e5d	-0.083187796
11	0xbe103a35	-0.14084704
12	0xbd204e5d	-0.039137233
13	0x3cc29f84	0.023757704
14	0x3c44a970	0.012003288
15	0x3cf30d80	0.029669523
16	0x3d31355f	0.04326379
17	0xbc93ff38	-0.018066034
18	0xbe1299bd	-0.14316459
19	0x3e214bf5	0.15751632
20	0x3db8f592	0.09031214
21	0xbe2c19ac	-0.16806668
22	0x3cb90538	0.022585496
23	0xbb22ad67	-0.0024822594
24	0xbdb3f10f	-0.08786213
25	0xbc045858	-0.008077703
26	0x3d2afe43	0.04174639
27	0x3daa8f3e	0.083281025
28	0xbcf6d29f	-0.030129729
29	0x3dd09bba	0.101859525
30	0xbd9a1025	-0.075226106
31	0xbd4ffeb3	-0.05078001
32	0x3d103c8a	0.035213985
33	0xbf4ebc55	-0.8075612
34	0xbdaa9986	-0.083300635
35	0x3c579ea4	0.0131603815
36	0xbd885f33	-0.06658783
37	0x3cd97b69	0.026548104
38	0x3d0cf1f5	0.034410436
39	0x3d80cc33	0.06288948
40	0xbdd1bfed	-0.10241685
41	0xbe2eedb8	-0.1708287
42	0xbcf2eb2a	-0.02965315
43	0x3d8c58cc	0.06852874
44	0xbd98fbcb	-0.07469901
45	0x3ddc57a8	0.107589066
46	0xbd899bc2	-0.067191616
47	0x3d648f92	0.05580098
48	0x3db8f9a0	0.09031987
49	0xbe1f52dd	-0.15558954
50	0xbc95e6a0	-0.018298447
51	0x3cfa0575	0.03052018
52	0xbd14d653	-0.036337208
53	0xbdda1325	-0.10648183
54	0x3d0c39f4	0.034234956
55	0xbd9f1b39	-0.07768864
56	0x3d7c187b	0.061546784
57	0xbe1f6266	-0.1556488
58	0x3cd4eddf	0.025992332
59	0xbd58e282	-0.05295039
60	0x3d7f183e	0.06227898
61	0xbc293dbe	-0.010329662
62	0x3e22efc6	0.15911779
63	0xbd9ee49c	-0.077584475
64	0x3cc1eb3d	0.02367174
65	0x3d640a16	0.05567368
66	0x3d416737	0.047217574
67	0xbdc074bb	-0.093972646
68	0xbd02d973	-0.031945657
69	0x3daf0d18	0.08547419
70	0x3cc8a1d5	0.02449123
71	0x3cc27086	0.023735296
72	0xbddc6753	-0.10761895
73	0x3ca017c1	0.019542577
74	0xbe123c03	-0.14280705
75	0x3c4916fe	0.012273548
76	0x3dfd2498	0.12360495
77	0xbd529ec7	-0.051420953
78	0x3e0bad80	0.13640404
79	0x3d9c6a9c	0.076375216
80	0x3c14e37b	0.009087439
81	0xbe0c21a7	-0.13684712
82	0x3ddabc7b	0.10680481
83	0x3d8d5d0e	0.069025144
84	0xbccce7eb	-0.02501293
85	0xbe073a80	-0.1320591
86	0xbca44afd	-0.020055288
87	0xbbc7a0cb	-0.006092166
88	0x3df0d3d8	0.11759156
89	0xbd835c1e	-0.06414054
90	0x3e1dabfc	0.15397638
91	0x3d4dabdd	0.05021273
92	0x3cd21815	0.025646249
93	0x3cd46a1a	0.0259295
94	0x3dc8c0a9	0.09802372
95	0xbca874dd	-0.020563537
96	0x3d8377a1	0.06419302
97	0xbd63c14c	-0.055604264
98	0xbc604b07	-0.013689763
99	0xbcd3430b	-0.025788805
100	0x3e0ae601	0.13564302
101	0xbe0f4cb8	-0.1399411
102	0x3dc66cde	0.096887335
103	0xbdbe6969	-0.09297449
104	0x3dab6d50	0.08370459
105	0x3d8519b9	0.06499047
106	0x3d3afc8c	0.045651004
107	0x3e19784c	0.14987296
108	0xbd8986ed	-0.06715188
109	0xbc420573	-0.0118421195
110	0x3dfe3f3d	0.124144055
111	0x3d54732f	0.05186766
112	0x3c3e338c	0.011608969
113	0x3d4e9737	0.05043718
114	0xbde35e80	-0.11102009
115	0xbda052b0	-0.078282714
116	0xbdbcac9e	-0.092126116
117	0x3e9316d2	0.28728348
118	0xbc583d5e	-0.013198225
119	0xbd9dca4f	-0.07704603
120	0x3c8b9f78	0.017043814
121	0x3abbffa8	0.0014343159
122	0xbde8f9c1	-0.11375762
123	0x3d92737e	0.07150935
124	0xbf5529f2	-0.8326713
125	0xbceee584	-0.029162176
126	0x3cd8ee75	0.026480893
127	0xbb8f82a3	-0.004379587
128	0x3e5209ca	0.20511547
129	0x3d59c6ed	0.053168226
130	0x3dafb88f	0.08580124
131	0x3d51ac5f	0.051189777
132	0xbb20c719	-0.0024532734
133	0x3e4cb468	0.19990695
134	0xbcf477f9	-0.029842364
135	0xbc7ecdbe	-0.015551982
136	0x3e4109ea	0.18851438
137	0xbc005c0c	-0.007834446
138	0x3da1acc3	0.0789428
139	0x3e14517c	0.14484209
140	0x3e0034d5	0.12520154
141	0x3c1e5ef5	0.009666194
142	0x3cda3738	0.026637658
143	0x3d17923f	0.037004706
144	0x3e0c0886	0.13675126
145	0x3c0a347e	0.008435367
146	0xbd167883	-0.036736023
147	0x3d027db8	0.031858176
148	0x3cae18d3	0.021252071
149	0xbd93d9a5	-0.07219247
150	0x3dacee55	0.08443896
151	0x3d505ab5	0.050867755
152	0xbd4cde31	-0.050016586
153	0x3e03deeb	0.12878005
154	0xbe576105	-0.21033104
155	0x3e329777	0.17440592
156	0x3e3a95d7	0.18221222
157	0x3e042748	0.1290561
158	0x3dcbc6ec	0.09950051
159	0x3da2decd	0.07952652
160	0xbd343994	-0.044000223
161	0xbd5f82ac	-0.054567978
162	0x3e38b6e7	0.18038522
163	0x3d713fd6	0.05889877
164	0xbdbe963c	-0.09305999
165	0x3c7a4b29	0.015276709
166	0xbd393533	-0.04521675
167	0x3dac6ca4	0.08419159
168	0x3c967e01	0.01837063
169	0x3c380564	0.011231754
170	0x3e247ea3	0.16063933
171	0x3d1e2876	0.038612805
172	0x3dff37c9	0.12461812
173	0x3df5c926	0.12001257
174	0x3d437b66	0.047725104
175	0x3d0eb8b1	0.034844104
176	0x3dfd60cc	0.12371978
177	0x3dee12fa	0.11624713
178	0x3e03b266	0.12861022
179	0x3e5af02e	0.21380684
180	0x3e5ac579	0.21364392
181	0xbe3e269e	-0.18569419
182	0x3d964273	0.07336893
183	0x3e367384	0.17817503
184	0x3e52c10c	0.20581454
185	0x3db41091	0.08792222
186	0x3c0ad65a	0.008473957
187	0x3e804215	0.25050417
188	0x3d82b2ef	0.06381785
189	0x3ddb3379	0.10703177
190	0xbc24d603	-0.01006079
191	0x3df18806	0.117935225
192	0x3d981a1b	0.07426854
193	0x3d9c00f3	0.076173685
194	0x3d2e7613	0.042593073
195	0x3e28b39e	0.16474769
196	0x3e118395	0.14210351
197	0x3e050534	0.12990266
198	0xbd8cb0b4	-0.06869641
199	0x3e14bdc0	0.14525509
200	0x3e5feaef	0.21866964
201	0x3d54ad6f	0.05192321
202	0xbdf0d457	-0.117592506
203	0x3dadc0c2	0.08484031
204	0xbcd897b8	-0.026439533
205	0x3d4a9890	0.0494619
206	0x3de4d09e	0.11172603
207	0x3e00f530	0.12593532
208	0x3d4983b5	0.04919787
209	0x3e43ec8b	0.19133203
210	0x3b31ac34	0.0027110698
211	0x3e29e70e	0.16592047
212	0x3dcc97d0	0.099898934
213	0x3dd654b2	0.10465373
214	0x3ddf4678	0.10902113
215	0x3e131aaf	0.14365648
216	0xbd331156	-0.043717705
217	0x3e298d45	0.16557796
218	0x3e07270b	0.13198487
219	0xbd2787dd	-0.040901054
220	0xbcb7cde9	-0.022437053
221	0xbd32d554	-0.043660477
222	0x3e3bb233	0.18329696
223	0x3dbb0c61	0.091332205
224	0xbd7f6588	-0.062352687
225	0x3e0736c7	0.1320449
226	0x3dc04e3b	0.09389921
227	0x3d07b3c0	0.033130407
228	0x3c82065f	0.015872179
229	0xbd48bae5	-0.04900636
230	0x3c9b0a30	0.018925756
231	0x3d583e5b	0.05279384
232	0x3e0b16de	0.13582942
233	0x3e2344fe	0.15944287
234	0x3e68abca	0.22721782
235	0xbd42b5d9	-0.047536705
236	0x3db93a40	0.090443134
237	0x3e4f4fe2	0.20245317
238	0x3e2fa698	0.17153394
239	0x3e1a3edd	0.15063043
240	0xbd0f470b	-0.03497986
241	0xbdb18184	-0.08667281
242	0x3e3779ac	0.17917508
243	0xbd8d6670	-0.06904304
244	0x3d972df3	0.07381811
245	0x3e4d7fbf	0.20068263
246	0x3dd2ed93	0.1029922
247	0xbc163758	-0.009168468
248	0x3d661640	0.056173563
249	0xbdfd317f	-0.12362956
250	0x3c70d94b	0.014700244
251	0x3e296dd3	0.16545801
252	0x3d8cb9df	0.068713896
253	0x3c1152a2	0.008869799
254	0x3e1d9688	0.15389454
255	0xbce64513	-0.028109109

layers.3.bias f4 [128]
0	0xbc7e165b	-0.01550826
1	0xbd02dbbb	-0.031947833
2	0xbda5e238	-0.080997884
3	0xbd161d2a	-0.036648907
4	0x3b7b3f6d	0.0038337365
5	0xbd5fee8f	-0.054670867
6	0x3d0ab427	0.033863213
7	0x3bddcbeb	0.0067686937
8	0x3d7f1255	0.062273342
9	0xbd891943	-0.066942714
10	0x3d526c3a	0.051372744
11	0x3d895b8b	0.067069136
12	0xbd1cba0a	-0.03826336
13	0xbdb21c65	-0.08696822
14	0x3dc90be9	0.09816725
15	0x3d3ac8fc	0.04560183
16	0xbd81c457	-0.06336277
17	0xbb8d9ed5	-0.004321913
18	0xbc1fdcaf	-0.009757205
19	0x3d933e67	0.07189637
20	0xba917a22	-0.001109902
21	0x3d988376	0.07446949
22	0x3b8188df	0.003953084
23	0xbd81fbbc	-0.06346843
24	0x3d539734	0.05165787
25	0x3da6a94a	0.08137758
26	0x3d51e122	0.051240094
27	0x3d6392c8	0.055559903
28	0xbd4634e3	-0.04839028
29	0x3ce5b366	0.028039645
30	0x3da27cf8	0.07933992
31	0xba843a8e	-0.0010088251
32	0x3dd1e2c1	0.10248328
33	0xbd676910	-0.05649668
34	0xbc50ad15	-0.0127365785
35	0xbd859c50	-0.06523955
36	0x3d7d1e99	0.06179676
37	0xbc0e12ce	-0.008671476
38	0x3d8ecb60	0.069723845
39	0xbda9d076	-0.08291714
40	0xbd44b8a1	-0.04802764
41	0xbd6c09b2	-0.057626434
42	0x3d6d702a	0.057968296
43	0x3d534342	0.051577814
44	0xbd3ef4d7	-0.046620216
45	0xbdf22a71	-0.11824501
46	0x3d9ae456	0.07563083
47	0x3dad7942	0.08470394
48	0xbc82e259	-0.015977072
49	0x3da86e32	0.08224143
50	0xbdad8d3d	-0.08474205
51	0x3d4a4ac6	0.049387716
52	0xbd9ef71f	-0.07761978
53	0x3d943653	0.07236924
54	0x3da42109	0.080141135
55	0x3bb0a26b	0.0053904555
56	0xbb102f56	-0.002200087
57	0xbca5c4f1	-0.02023551
58	0xbd9872d4	-0.07443777
59	0x3d84bdb4	0.064814955
60	0x3d22db29	0.03975979
61	0x3d280128	0.041016728
62	0xbd561bb9	-0.052272532
63	0x3d0d9cc1	0.03457332
64	0x3ce5c2d6	0.028047007
65	0x3bdff1e2	0.0068342546
66	0x3d4570ba	0.048203208
67	0x3c0bd3e1	0.008534403
68	0xbd8ce13c	-0.068788975
69	0x3d78d3d1	0.06074888
70	0xbd0c15b8	-0.0342004
71	0x3d148f76	0.036269628
72	0xbd4acb16	-0.049510084
73	0x3dacb1f6	0.08432381
74	0x3c9cba1a	0.019131709
75	0xbcd10411	-0.025514634
76	0xbd94bb79	-0.0726232
77	0x3d77bdac	0.06048362
78	0x3ccc7251	0.024956854
79	0x3c2fe5f1	0.010735975
80	0xbd820410	-0.06348431
81	0xbd7ccb39	-0.061717246
82	0x3ca07918	0.019588992
83	0x3daf5d28	0.0856269
84	0x3d506a69	0.05088273
85	0x3c378430	0.01120095
86	0x3c18a387	0.009316332
87	0x3d86ea0d	0.065876104
88	0x3db3aea0	0.087735415
89	0xbdaef26b	-0.08542331
90	0x3d33dc8c	0.0439115
91	0x3c5e21a3	0.013557824
92	0x3c986e2b	0.01860722
93	0x3bd8bab4	0.0066140536
94	0xbd51a201	-0.05117989
95	0x3d2ebee4	0.042662516
96	0xbdd066c2	-0.101758495
97	0xbda3b9a1	-0.0799439
98	0xbc85c003	-0.01632691
99	0xbd8cf012	-0.06881727
100	0xbc433bce	-0.011916114
101	0x3da231cd	0.07919655
102	0xbd7a4eb8	-0.06111023
103	0xbaa26030	-0.0012388285
104	0x3bbd32f3	0.005773896
105	0x3daa1082	0.0830393
106	0x3bb0652c	0.0053831544
107	0xbdb0ae93	-0.086270474
108	0x3bf8eae1	0.007596359
109	0xbc0104c0	-0.007874668
110	0xbc86e221	-0.016465249
111	0x3cd30a0b	0.025761625
112	0xbd0ce768	-0.034400374
113	0xbd234fb9	-0.03987095
114	0x3d1b8ec3	0.037977945
115	0xbdad7fcc	-0.08471641
116	0xbd8992c5	-0.06717447
117	0x3cb5b9e2	0.022183362
118	0x3df44e19	0.119289584
119	0x3d10cfe0	0.035354495
120	0xbdc7c5de	-0.09754537
121	0xbd792ba3	-0.06083263
122	0x3d8dc245	0.069218196
123	0x3e1b52bc	0.1516828
124	0x3d5c51d7	0.053788986
125	0xbdb7735f	-0.08957552
126	0x3d80900e	0.06277476
127	0x3c6c8e12	0.014438169

layers.4.weight f4 [128]
0	0x3f59b34d	0.85039216
1	0x3f780757	0.968862
2	0x3f6ffb86	0.9374317
3	0x3f3ee00c	0.7456062
4	0x3f4baf17	0.7956404
5	0x3f81c14e	1.0137117
6	0x3f8076b5	1.0036227
7	0x3f6a9f1d	0.9164904
8	0x3f8136d0	1.0094852
9	0x3f68c8b5	0.90931255
10	0x3f69a6ac	0.91269946
11	0x3f77643c	0.9663732
12	0x3f5bc4e4	0.85847306
13	0x3f9773a1	1.1832162
14	0x3f899332	1.0748045
15	0x3f12378d	0.57116014
16	0x3f8e90b7	1.1137913
17	0x3f8285bd	1.0197064
18	0x3f657e48	0.89645815
19	0x3f720ba4	0.9454901
20	0x3f53a27e	0.8266982
21	0x3f312ab3	0.6920578
22	0x3f93ff9e	1.1562383
23	0x3f692689	0.91074425
24	0x3f4d4166	0.80177915
25	0x3f7d32e0	0.98905754
26	0x3f56a92d	0.8385189
27	0x3f4b6997	0.7945799
28	0x3f7be5f5	0.9839776
29	0x3f72f8c7	0.94910854
30	0x3f7df39e	0.99199855
31	0x3f7585ee	0.95907485
32	0x3f83e681	1.0304719
33	0x3f6c81bd	0.92385465
34	0x3f546b2d	0.8297604
35	0x3f67cce4	0.90547013
36	0x3f70e730	0.94102764
37	0x3f6e60ff	0.93116754
38	0x3f7af04f	0.9802293
39	0x3f8130bc	1.0092998
40	0x3f5db7c6	0.8660854
41	0x3f7f8025	0.9980491
42	0x3f89a397	1.0753049
43	0x3f5b8a15	0.8575757
44	0x3f4d0d1b	0.8009812
45	0x3f841dbe	1.0321577
46	0x3f64849b	0.8926484
47	0x3f45d2cf	0.77274793
48	0x3f6a3bcc	0.9149749
49	0x3f3e83e3	0.74419993
50	0x3f6220fb	0.88331574
51	0x3f63fb83	0.8905565
52	0x3f927c33	1.1444153
53	0x3f68e855	0.9097951
54	0x3f72814e	0.94728553
55	0x3f30f561	0.6912442
56	0x3f56dfe8	0.83935404
57	0x3f61d9a3	0.8822271
58	0x3f8f5210	1.1196918
59	0x3f73358d	0.95003587
60	0x3f61f6bc	0.8826711
61	0x3f7d0766	0.98839414
62	0x3f8ad58e	1.0846422
63	0x3f34b264	0.705847
64	0x3f65a3cc	0.8970306
65	0x3f869de3	1.0516933
66	0x3f5e6bd0	0.8688326
67	0x3f7c990e	0.9867104
68	0x3f5d9854	0.8656056
69	0x3f6ce0d7	0.9253058
70	0x3fb500a2	1.4140818
71	0x3f8e1ea7	1.1103104
72	0x3f722ed7	0.9460272
73	0x3f4381ed	0.76370126
74	0x3f859c91	1.0438405
75	0x3f51085f	0.816534
76	0x3f89201c	1.0712924
77	0x3f3fc27c	0.74906135
78	0x3f629f91	0.8852473
79	0x3f6afca5	0.91791755
80	0x3f5e46e0	0.86826897
81	0x3f649bfc	0.89300513
82	0x3f75b7ed	0.95983773
83	0x3f737433	0.9509918
84	0x3f6f9f7e	0.9360274
85	0x3f659125	0.896746
86	0x3f6db1fd	0.92849714
87	0x3f7f0372	0.9961463
88	0x3f71c23c	0.94437003
89	0x3f5ed285	0.8703998
90	0x3f7699f5	0.9632867
91	0x3f74cbd5	0.95623523
92	0x3f500661	0.81259733
93	0x3f7c1cda	0.98481524
94	0x3f66a5ef	0.90096945
95	0x3f8725d1	1.0558416
96	0x3f55c5fd	0.8350523
97	0x3f57f4d2	0.8435794
98	0x3f7a50f7	0.9777979
99	0x3f711358	0.9417014
100	0x3f4c34e0	0.7976818
101	0x3f7edd87	0.99556774
102	0x3f5d28b9	0.8639026
103	0x3f363191	0.7116938
104	0x3f549835	0.8304475
105	0x3f8add40	1.084877
106	0x3f5b8f6f	0.8576574
107	0x3f632098	0.8872161
108	0x3f8526c3	1.0402454
109	0x3f74fc46	0.9569744
110	0x3f768ce4	0.9630873
111	0x3f62959f	0.88509554
112	0x3f2d05ba	0.67586863
113	0x3f932aea	1.1497471
114	0x3f809550	1.0045567
115	0x3f7027e6	0.9381088
116	0x3f62d75f	0.8860988
117	0x3f3d95a2	0.74056447
118	0x3f88abb6	1.0677402
119	0x3f6aa86a	0.9166323
120	0x3f772b7c	0.96550727
121	0x3f69c712	0.9131938
122	0x3f46d116	0.7766279
123	0x3f7c0add	0.98454076
124	0x3f4dd38b	0.80400914
125	0x3f7a3f42	0.97752774
126	0x3f570d1c	0.8400438
127	0x3f771457	0.9651541

layers.4.bias f4 [128]
0	0xbe84ab4e	-0.25911945
1	0xbecea1f7	-0.40357944
2	0xbe09545f	-0.13411091
3	0xbf0bd1a6	-0.54616773
4	0xbec543d9	-0.38528326
5	0xbebd6d9a	-0.36997682
6	0xbdfb4da4	-0.12270668
7	0xbe746589	-0.23866858
8	0xbe1f54a4	-0.15559632
9	0xbe05a6e7	-0.1305195
10	0xbe72c833	-0.23709182
11	0x3d039afe	0.032130234
12	0xbe9f5064	-0.3111602
13	0x3d400673	0.04688115
14	0x3db3f0fb	0.08786198
15	0xbf221f67	-0.63329166
16	0x3d339280	0.043840885
17	0xbca8ac63	-0.020590013
18	0xbd9d977b	-0.07694908
19	0xbf004036	-0.5009798
20	0xbe49a9d4	-0.1969369
21	0xbebcb6e0	-0.36858273
22	0x3da53fd3	0.08068814
23	0xbe4c7f41	-0.19970419
24	0xbe462dea	-0.19353452
25	0xbe7b0f46	-0.24517545
26	0xbeec5b6f	-0.46163508
27	0xbe9c4f40	-0.30529213
28	0xbca6a0dc	-0.020340376
29	0xbe9dc20e	-0.30812114
30	0xbd029947	-0.031884458
31	0xbc8cc5e5	-0.017184207
32	0xbd865cb6	-0.06560652
33	0xbc12d594	-0.008962054
34	0xbf1e9f33	-0.6196167
35	0xbd88b8c7	-0.066758685
36	0xbd26ee78	-0.040754765
37	0xbe69919c	-0.22809452
38	0xbe2cf0e6	-0.1688877
39	0xbdb4be5a	-0.08825369
40	0xbe8da039	-0.27661303
41	0xbed5bf13	-0.4174734
42	0xbe33ec28	-0.17570555
43	0xbea44e31	-0.32090905
44	0xbe62cb49	-0.2214786
45	0xbdd119e7	-0.102100186
46	0xbe1cb4f7	-0.15303408
47	0xbe8bbd0b	-0.27292666
48	0xbe67797d	-0.22604938
49	0xbe824ab6	-0.25447625
50	0xbee80d5c	-0.45322692
51	0xbb9ff9dc	-0.0048820805
52	0xbef15f35	-0.4714295
53	0xbe85ef2c	-0.26159036
54	0xbeb60d01	-0.35556796
55	0xbf06459b	-0.5244996
56	0xbe702ea6	-0.23455295
57	0xbd7b6421	-0.061374787
58	0xbebb87e1	-0.36627105
59	0xbe419dac	-0.18907803
60	0xbdd9a134	-0.1062645
61	0xbd5efbfe	-0.054439537
62	0xbdca2eac	-0.09872183
63	0xbe6cca57	-0.23124062
64	0xbd884b45	-0.066549815
65	0xbe9fe22f	-0.31227252
66	0xbe22ef3d	-0.15911575
67	0xbdb7cbef	-0.08974444
68	0xbe53217b	-0.2061824
69	0xbd113ba9	-0.035457287
70	0xbf176e8b	-0.5915305
71	0xbd2577a3	-0.040397298
72	0xbd11be4e	-0.03558188
73	0xbeeb6aac	-0.45979822
74	0x3dbbaa32	0.091633216
75	0xbf06610a	-0.5249182
76	0xbf32faa4	-0.699137
77	0xbe6d1eb1	-0.23156239
78	0xbf1ec06b	-0.62012357
79	0xbe6a3687	-0.22872363
80	0xbea48e4b	-0.3213981
81	0xbf15f8a3	-0.58582515
82	0xbe1976c1	-0.14986707
83	0xbcba4140	-0.022736192
84	0xbe5aeadb	-0.21378653
85	0xbec84664	-0.39116204
86	0xbe3da275	-0.18519004
87	0xbe62c702	-0.22146228
88	0xbe86917d	-0.26282874
89	0xbec0721c	-0.3758706
90	0xbe6dc350	-0.23219037
91	0xbf3bda33	-0.7337982
92	0xbee31300	-0.44350433
93	0xbeaac40b	-0.33352694
94	0xbcfd13be	-0.030893203
95	0xbf11a842	-0.56897366
96	0xbf095bcd	-0.536557
97	0xbe2308af	-0.15921281
98	0xbdf90c39	-0.121605344
99	0xbedfa89d	-0.4368333
100	0xbe8399c1	-0.25703242
101	0x3d879301	0.06619836
102	0xbe0e0897	-0.13870464
103	0xbe34fe62	-0.17675164
104	0xbecdf5a4	-0.4022647
105	0x3d9627ad	0.07331786
106	0xbeb39d02	-0.35080725
107	0xbefc7019	-0.49304274
108	0xbe8fc5d9	-0.28080633
109	0xbd250fec	-0.040298387
110	0xbe6f4875	-0.23367484
111	0xbe43aa88	-0.19108021
112	0xbe9e0d2d	-0.30869427
113	0x3d39d42f	0.04536837
114	0xbe42841f	-0.18995713
115	0xbe4310db	-0.19049399
116	0xbea349af	-0.31892154
117	0xbdf5b132	-0.11996688
118	0xbe0d09aa	-0.13773218
119	0x3c6f3c7c	0.014601823
120	0xbe97371e	-0.2953424
121	0xbe064d88	-0.13115513
122	0xbf0bf822	-0.54675496
123	0xbef83ca4	-0.48483765
124	0xbe432828	-0.19058287
125	0xbcf47c8b	-0.029844543
126	0xbf352ef4	-0.7077477
127	0xbea25014	-0.3170172

layers.4.running_mean f4 [128]
0	0xbf550b4e	-0.83220375
1	0x402dcd60	2.71566
2	0x3f964d9e	1.1742437
3	0x3fc265fc	1.5187373
4	0xbfca3040	-1.5795975
5	0x3d47f86a	0.04882089
6	0x3fe21ab1	1.7664396
7	0xbfb82648	-1.4386683
8	0x3fe04c86	1.7523353
9	0xbf5e976e	-0.86949813
10	0xc04bb5d7	-3.1829736
11	0xbfb90ff5	-1.4457995
12	0xc0243db8	-2.566267
13	0xbffe85ca	-1.9884579
14	0xbfae8772	-1.3635085
15	0xbfd2cb60	-1.6468315
16	0xbffa2b1f	-1.954441
17	0xc0816ccc	-4.044531
18	0x3e2eaac2	0.17057326
19	0x40260fc3	2.594712
20	0x3f9b2d1c	1.2123141
21	0x3fb3c939	1.4045783
22	0xbfb01d33	-1.3758911
23	0x3f23635b	0.6382348
24	0x3e806a7a	0.25081235
25	0x3f8d5eef	1.1044596
26	0xc00e65d5	-2.2249653
27	0xc040cdd4	-3.0125628
28	0xbf7f6dc8	-0.9977689
29	0x401a4fb4	2.4111147
30	0xc03583f5	-2.836179
31	0xbecd3752	-0.4008127
32	0xc07a1c20	-3.9079666
33	0xbfc5446c	-1.5411506
34	0x40130eb9	2.2977736
35	0xbf950dc9	-1.1644832
36	0xbf90cce9	-1.1312534
37	0x3fb12692	1.3839896
38	0xbfaf32c7	-1.3687371
39	0xbff47d3b	-1.9100717
40	0xbf50ddcf	-0.81588453
41	0x3fa0a3a6	1.2549942
42	0x3fd057d7	1.6276807
43	0xbf5e6005	-0.86865264
44	0x3dc44917	0.09584253
45	0x3fb86d55	1.4408365
46	0xbf112719	-0.56700283
47	0xbd9b1fdb	-0.07574435
48	0xc00c1c44	-2.1892252
49	0x3e885328	0.26625943
50	0xc00b08db	-2.1724155
51	0xbf8595db	-1.0436357
52	0x40239b9d	2.556373
53	0xc00105b5	-2.0159733
54	0x4032fcad	2.796672
55	0x3edb5d16	0.42844456
56	0x3fe3b38b	1.7789167
57	0xbfa58d48	-1.2933741
58	0x40039295	2.0558217
59	0x3e9959b8	0.29951262
60	0xbf03c122	-0.5146657
61	0xc01c3721	-2.4408648
62	0x3fc786d6	1.5588024
63	0xc04f16be	-3.235763
64	0x3f93fbfe	1.1561277
65	0x402577e7	2.5854433
66	0xbfeae5ac	-1.835134
67	0xc043778a	-3.054171
68	0xbf723ccb	-0.9462401
69	0xbeb6165f	-0.35563943
70	0x404949a6	3.1451201
71	0x3a928cce	0.0011180879
72	0xbf167ec6	-0.5878719
73	0x4020acd0	2.5105476
74	0xbffc86cd	-1.9728638
75	0x401066fa	2.2562852
76	0x40569221	3.352669
77	0xc03f8755	-2.992635
78	0x3ff8b0b5	1.9428927
79	0xc0272442	-2.611588
80	0xbfbd13b9	-1.4771644
81	0x401bd927	2.435129
82	0xbfe33083	-1.774918
83	0xc0144e94	-2.317296
84	0x40005815	2.005376
85	0x40035039	2.0517714
86	0x3f5e31bd	0.86794645
87	0xc009dd20	-2.1541214
88	0xbef0aec1	-0.47008327
89	0xbf528b11	-0.8224345
90	0xbe78023e	-0.24219605
91	0x40124441	2.285416
92	0x400858de	2.130424
93	0x40090f6c	2.1415663
94	0xbf09ef8f	-0.5388116
95	0x3fda8770	1.7072582
96	0x4010ed56	2.2644858
97	0xbf6f3f1e	-0.93455684
98	0xbef3472b	-0.47515234
99	0x40064344	2.0978556
100	0xbf48fbef	-0.7850942
101	0xbfa94241	-1.3223344
102	0xbf812ba4	-1.0091443
103	0xbedca915	-0.4309775
104	0x3e2f5836	0.17123494
105	0xc01ca18a	-2.4473596
106	0xbf9ba633	-1.2160095
107	0xbe58ac08	-0.21159375
108	0x3ff83295	1.9390436
109	0xbfd874be	-1.6910627
110	0x3fb0a8af	1.3801478
111	0xbfd7c976	-1.6858356
112	0xbf6c9fbd	-0.9243124
113	0xbfd9d2f0	-1.7017498
114	0x3f0c968e	0.5491723
115	0xbdb8dc13	-0.09026351
116	0xbf3668ad	-0.7125347
117	0x3ede36f8	0.43401313
118	0xbf3511bc	-0.70730186
119	0xbf514d2c	-0.8175838
120	0x3efba1af	0.49146792
121	0xbfee3c3a	-1.861213
122	0x3fccc60e	1.5997941
123	0x3fd37559	1.6520187
124	0xc00aab1b	-2.1666934
125	0xbf1533a5	-0.5828193
126	0x40177d40	2.3670197
127	0xbb11eb41	-0.0022265466

layers.4.running_var f4 [128]
0	0x402a9675	2.6654332
1	0x4048bcd7	3.1365259
2	0x40f93f4d	7.788977
3	0x402f7fe9	2.742182
4	0x416f1173	14.94176
5	0x3e85ce30	0.2613387
6	0x40a282f7	5.078487
7	0x414569b9	12.338311
8	0x40b9a1df	5.8010097
9	0x4060d9c6	3.5132918
10	0x40c70a76	6.220027
11	0x40b91a34	5.7844486
12	0x41475144	12.45734
13	0x3fc14333	1.5098633
14	0x413fd7f4	11.990223
15	0x40dbb5f8	6.865963
16	0x408ba734	4.3641605
17	0x40a9cb1a	5.3060427
18	0x40a241a9	5.070515
19	0x3fff06c5	1.9923941
20	0x40c8dab1	6.2766957
21	0x40883df4	4.2575626
22	0x402bfaf2	2.6871915
23	0x40b9f2a5	5.8108697
24	0x408460a7	4.1367984
25	0x3fa83856	1.3142192
26	0x4183aade	16.458431
27	0x4150e2d5	13.055379
28	0x40c7ec8e	6.2476263
29	0x40018fc4	2.0243998
30	0x40eb81ac	7.359579
31	0x40a261ff	5.0744624
32	0x40b3fea1	5.6248326
33	0x4124d3cd	10.301709
34	0x4010c53b	2.262038
35	0x40ac3025	5.380877
36	0x4086490d	4.1964173
37	0x410bc60c	8.735851
38	0x40f8fe54	7.781046
39	0x40258bdf	2.586662
40	0x40881701	4.252808
41	0x3fd78cab	1.6839803
42	0x4092d91e	4.5890036
43	0x41175c99	9.460107
44	0x4093e120	4.621231
45	0x40f05780	7.510681
46	0x40b66fd2	5.70115
47	0x4029510d	2.645572
48	0x40dc5c38	6.886257
49	0x4108a735	8.540822
50	0x4175ea18	15.369652
51	0x41308b60	11.034027
52	0x4024f0c9	2.5771964
53	0x40d1a19f	6.550979
54	0x3fd60e8b	1.6723188
55	0x40bc2826	5.879901
56	0x3fd1e75a	1.6398728
57	0x3feb4a5d	1.8382069
58	0x3fa531be	1.2905805
59	0x400e6e7f	2.2254941
60	0x40e19b21	7.0501866
61	0x411b22c4	9.695988
62	0x4002127f	2.032379
63	0x410843ae	8.516523
64	0x403ab492	2.9172711
65	0x4031c871	2.777859
66	0x406f2c40	3.7370758
67	0x40bca42a	5.8950396
68	0x40afb0e8	5.490345
69	0x40c3a5cf	6.1139903
70	0x405a7bae	3.4137988
71	0x406fbf5e	3.7460551
72	0x40adeb8e	5.435004
73	0x404f03b2	3.2346005
74	0x414dfab6	12.873709
75	0x401ef7e6	2.4838805
76	0x4010f381	2.2648623
77	0x419d94ee	19.69772
78	0x3fc8e92c	1.5696158
79	0x4079aba3	3.9011009
80	0x406594a5	3.5871975
81	0x3fb996e0	1.4499168
82	0x410a118d	8.629285
83	0x40d294ac	6.5806484
84	0x408ea0ab	4.457113
85	0x4045c2ea	3.0900216
86	0x4096bfae	4.7108984
87	0x413b9777	11.724479
88	0x40dd8e51	6.9236226
89	0x4022e74b	2.545367
90	0x40abf886	5.3740873
91	0x3fa60cb3	1.2972625
92	0x40232e85	2.5497143
93	0x408c46cb	4.3836417
94	0x40ac1ea5	5.378741
95	0x3f9fcc73	1.2484268
96	0x40153038	2.331068
97	0x4080c534	4.0240726
98	0x40ebc081	7.367249
99	0x40733722	3.80024
100	0x408ae315	4.34022
101	0x40ac5191	5.384957
102	0x40fbfc45	7.8745446
103	0x4095b42c	4.6782436
104	0x3fe94db8	1.8226843
105	0x40e35179	7.1036954
106	0x4084a43e	4.145049
107	0x3fdb6caf	1.7142543
108	0x40341c5f	2.8142316
109	0x4125153e	10.317686
110	0x3fdd629b	1.7295717
111	0x4150e627	13.05619
112	0x4114e13f	9.304992
113	0x3fd58c7a	1.6683495
114	0x3f79391b	0.9735276
115	0x40528561	3.2893908
116	0x40ceb7b7	6.459926
117	0x408ecd06	4.4625273
118	0x3fbe635e	1.4874074
119	0x40d38eb2	6.611169
120	0x403ed6f6	2.9818702
121	0x403a670f	2.9125402
122	0x3fdd2186	1.7275856
123	0x3fdb6227	1.7139329
124	0x40365c9d	2.8494027
125	0x4057a334	3.3693361
126	0x3fb1e42b	1.3897756
127	0x40468be1	3.1022875
